src/best_model.pt (torch, 211746 bytes, 14 tensors)

fc1.weight f4 [256, 65]
000000 30 64 a4 bd 2a f9 0a bc 50 89 02 3e 74 26 f0 3c
       -0.08026922 -0.008482257 0.12747693 0.02931521
000010 1f e5 cf 3d c9 13 01 be 76 c6 38 bc 43 ad d5 3d
       0.10151123 -0.12605204 -0.0112777855 0.10433438
000020 8a 25 e6 3b be 64 8b 3d b4 50 90 bd 25 47 25 3d
       0.007023518 0.068063244 -0.07046643 0.04035105
000030 73 a9 0d bb 00 d7 45 bd 90 e9 e2 bd f6 05 43 bd
       -0.0021615892 -0.048300743 -0.11079705 -0.047613107
000040 c2 bf 38 bd 9e bf 01 bd f1 83 25 3d ec 0c ba bc
       -0.04510475 -0.03167688 0.040409032 -0.02271124
000050 61 08 92 bd e8 14 62 3d 42 0f 69 bd 80 c5 0e bd
       -0.071305044 0.05519572 -0.056899317 -0.03485632
000060 d3 ef bd bd d4 24 9a 3c cd b3 c9 bd a4 a1 32 bd
       -0.092742585 0.01881639 -0.098487474 -0.043611184
000070 1a 0b 92 bd 68 dc 15 3c cb a9 64 3b a7 07 ff bd
       -0.07131024 0.009146787 0.0034891244 -0.124526314
000080 a5 7d 4a bd a9 85 fc bc 88 84 86 bc a8 c4 8c bb
       -0.04943623 -0.030825453 -0.016420618 -0.004295904
000090 60 6b ef bd c6 60 d9 bc d2 f2 13 bd e8 aa 38 bc
       -0.11690402 -0.026535403 -0.036120243 -0.011271216
0000a0 ee 5b be 3d 54 bb ac bd 94 d0 d3 bd 30 23 2c 3d
       0.09294878 -0.084341675 -0.103425175 0.042025745
0000b0 c5 33 90 3d 68 74 48 3c 54 e3 cb 3d 35 bf 1e 3d
       0.07041124 0.012234785 0.09955469 0.038756568
0000c0 86 11 be bd 36 bf bd bd 0e 08 e9 3d 7f 5a 0b 3e
       -0.09280686 -0.09264986 0.113784894 0.1360874
0000d0 70 fb ed bb bf d6 73 3d 48 fc 24 3d 68 fa c5 bd
       -0.0072626397 0.05953097 0.040279657 -0.09666902
0000e0 d6 82 c5 bc a7 ec b6 3d df 7b 85 3d 68 d3 84 3d
       -0.024110239 0.089318566 0.06517767 0.06485635
0000f0 53 84 ff bd b8 a3 75 3d ee 85 41 bd 47 59 bf 3d
       -0.12476411 0.059970587 -0.047246866 0.093432
000100 5b 0f 14 3e f4 ed aa bd 7a 33 77 bc 0e 11 28 bd
       0.14458983 -0.08346167 -0.015087957 -0.04103189
000110 7e fe 9f bd 1e fd 53 3c fe 53 ab bd af d3 a7 bd
       -0.078122124 0.012938766 -0.083656296 -0.08194672
000120 4e 8e ad bd a8 3f ab 3d 4d 7c 83 bb 54 84 56 bb
       -0.08474408 0.08361751 -0.0040126205 -0.0032732682
000130 28 27 de bd a3 4a 05 bd 1d df d2 3d 03 81 2c 3d
       -0.10847312 -0.032541882 0.10296462 0.042115223
000140 f0 11 1e 3e d8 da a4 3d 5e 18 01 be 08 43 28 3c
       0.1543653 0.08049554 -0.12606952 0.010269888
000150 7d 5c 16 bd 3a 94 93 bd ce cc ac 3d 46 9d 6b 3d
       -0.036709297 -0.07206006 0.08437501 0.057523035
000160 60 30 bf bc ca 07 d7 3d 69 f0 a8 3d 97 07 08 be
       -0.023338497 0.104995325 0.082489796 -0.13284145
000170 26 60 a9 bd 3c b4 81 bd 10 c7 02 3a ce 2b 95 bd
       -0.08270292 -0.06333205 0.0004988769 -0.07283746
000180 6d b1 91 bd 4d 3d 78 3d 2e c4 56 bd 7b f2 41 bd
       -0.071139194 0.060605336 -0.052433185 -0.047350388
000190 c4 df c2 bd b4 b2 c1 bc 90 4d c8 bd 38 f6 9c bd
       -0.09515336 -0.023644783 -0.09780419 -0.0766415
0001a0 e0 f8 c7 bd 38 5f b1 bd cd ef cc 3d e8 f4 b9 3d
       -0.09764266 -0.0866074 0.10006676 0.09079915
0001b0 ba ec 94 3c e9 f9 b0 3d 09 3c 2b 3d 3e 1f 01 bd
       0.018179286 0.086414166 0.0418053 -0.031523935
0001c0 11 e9 62 3c b6 8a 04 be 50 33 9c 3d ce 54 1f 3d
       0.013849513 -0.12943539 0.076269746 0.038899235
0001d0 5b 15 2c bd ef 44 70 3d b5 53 64 3d 0f 81 b0 3d
       -0.042012554 0.05865949 0.05574389 0.08618366
0001e0 8e 35 ba 3c a7 f7 1f 3c 05 82 d2 bd c8 5d 48 bd
       0.022730615 0.009763635 -0.102787055 -0.04891756
0001f0 3f 61 58 3d e3 5a 46 3e 43 b1 30 3d 18 6e 64 3c
       0.052827116 0.19370608 0.0431378 0.013942264
000200 53 b1 23 bd fc b5 63 bd cc 9a 56 bd 14 13 47 bc
       -0.03996403 -0.055593476 -0.05239372 -0.012150545
000210 61 6d f6 3d ec 4f 44 bd 2d b5 8d 3d 96 a6 e0 3d
       0.12032581 -0.047927782 0.06919322 0.10969274
000220 f1 74 84 3d eb 80 ab bd 28 ae 37 3c ba c8 ee bd
       0.06467617 -0.083741985 0.011210956 -0.11659379
000230 50 e1 f8 3d 40 01 b7 bd 97 dd c7 bc a7 40 ee bb
       0.1215235 -0.08935785 -0.024397654 -0.0072708908
000240 6b f9 ba bc 4a ce b2 bd fe 53 52 3d eb b7 a6 bd
       -0.02282401 -0.08730753 0.051349632 -0.08140548
000250 8f a1 01 bc 61 f8 83 3d c3 6b 9d 3d ff 9c 09 be
       -0.007912054 0.06443859 0.076865695 -0.13438796
000260 62 1f b2 bc db 22 90 3d b6 87 d0 3c b9 fb f2 3d
       -0.02174348 0.07037898 0.025455337 0.118644185
000270 22 5b f8 bb 34 a7 3c bd d3 12 3e bb 15 f3 b5 3d
       -0.0075792233 -0.046057895 -0.002900292 0.08884255
000280 66 fb 88 3d 62 08 5a 3c 2f 0e 82 3d 5b 12 0b bc
       0.066885754 0.013307663 0.063503616 -0.008488263
000290 cd aa be 3c 8d c9 c5 bc 72 b3 cc bc 46 7d db bd
       0.023274804 -0.024143958 -0.02498791 -0.107172534
0002a0 32 54 14 be b9 86 ba 3d f0 df e9 bd 91 02 13 bd
       -0.14485243 0.091077276 -0.11419666 -0.03589112
0002b0 c4 70 83 3d 3e 0a fc 3b ba bc 29 3d 56 a1 c6 3d
       0.06417993 0.0076916507 0.04143975 0.09698741
0002c0 31 0a c3 3d 89 77 d5 3d 44 44 57 bd 66 8e bf bd
       0.09523428 0.1042319 -0.052555338 -0.09353332
0002d0 8f 98 01 be 82 7f d9 3d a1 a9 0f 3d 41 a2 a6 bd
       -0.12655853 0.10620023 0.03507388 -0.08136416
0002e0 2e 64 c0 3c c9 d6 09 3a 53 6b 1c bd 65 3c d8 bd
       0.02348527 0.0005258141 -0.03818829 -0.10558394
0002f0 70 f4 60 bd 95 5f 0d 3c 00 2f d3 bd 6d 81 12 bd
       -0.054920614 0.008628746 -0.10311699 -0.03576796
000300 73 4f 93 bd 94 05 1b 3d ba e1 3c 3d 4f 30 1a 3d
       -0.07192888 0.037847117 0.046113707 0.037643727
000310 ae 5c 2e 3d 33 b8 15 bd ee 75 ad bd 9f f9 c3 3d
       0.042568855 -0.03655262 -0.08469759 0.09569096
000320 a7 1a bd bd bd c7 c3 bd dc 38 39 bb f2 6e 6a 3d
       -0.09233599 -0.095595814 -0.002826265 0.057234712
000330 25 d1 f0 bd 5a ec 41 3c 6f bf d1 3b 87 47 95 3b
       -0.11758641 0.011836136 0.0064009945 0.004555646
000340 2d c5 19 3e 35 90 1a be e4 14 f6 3d 22 a4 f7 bd
       0.15016623 -0.15094073 0.12015703 -0.12091853
000350 d1 6c 0d 3d a5 23 95 bd ec 21 d8 3d 91 bc 6d bd
       0.034527604 -0.07282189 0.10553345 -0.05804116
000360 cd 1d fe 3d 0e 46 e1 3c c5 b2 e7 3d fb d0 01 bd
       0.12408028 0.027499225 0.113133945 -0.03169344
000370 6f 7a f4 3d 6d f4 b2 3d 2b 74 05 3e 83 7b b8 bd
       0.11937415 0.08738027 0.13032596 -0.09007933
000380 29 d3 3a bd 15 f1 f3 bd db c9 15 3e 05 1c d0 bc
       -0.045611534 -0.11911217 0.14627783 -0.025403986
000390 ca 2c ae 3c 21 2d 21 3d 52 06 32 ba 7f 36 c8 3c
       0.021261591 0.03934968 -0.0006791103 0.024440048
0003a0 17 90 0f bc 47 9e 41 3e 68 38 b6 bd c3 01 11 bd
       -0.008762381 0.18908034 -0.088974774 -0.03540207
0003b0 5d 82 bd bc d8 15 40 3b 76 66 94 3d 19 56 8b bc
       -0.023133451 0.0029309895 0.072461054 -0.017008828
0003c0 b6 fc 56 bd 8f 18 5b 3d 5a d2 59 3c 39 37 0b bb
       -0.052487098 0.053490218 0.013294781 -0.0021242632
0003d0 31 6a 88 3c de f4 79 bd 2c 14 82 3d 4e ab 42 3d
       0.016652199 -0.06102454 0.06351504 0.04752665
0003e0 5f 7d 90 bd b0 ad 93 bd 53 dd 02 3d 37 e5 97 bd
       -0.07055163 -0.07210863 0.031949352 -0.07416766
0003f0 9e e4 36 bd 0e ed 41 bd 94 3e 72 3d 42 92 2b 3c
       -0.04465162 -0.047345214 0.05914171 0.010471882

fc1.bias f4 [256]
000000 93 3d d5 3c 2b 86 c1 bb 2d 82 16 3c c7 89 e0 bd
       0.026030337 -0.0059058866 0.00918631 -0.10963779
000010 f2 4e 2b bc 3b 43 fd bc a4 00 5e 3d fd d6 94 3b
       -0.010455834 -0.030915847 0.05419983 0.00454223
000020 b7 4b 8e bc b4 81 25 be 59 bf df bd 06 8c 91 3d
       -0.017370088 -0.16162759 -0.109251685 0.071067855
000030 ce 4a 93 3d d1 03 b6 3c b6 43 9a bd c6 72 e2 3d
       0.07192002 0.022218617 -0.07532446 0.110570475
000040 19 13 f9 bd fa 53 94 bd 8c 06 e2 bc a1 90 b1 3d
       -0.12161846 -0.0724258 -0.027591012 0.08670164
000050 cc 34 d7 3d 49 70 d3 3d a2 74 b3 bd 26 6f 48 3b
       0.10508117 0.10324151 -0.0876248 0.0030583828
000060 98 09 a9 bc 74 92 e5 bd 20 4f cd bd 4e 9c 0a be
       -0.020634457 -0.11209574 -0.100248575 -0.13536188
000070 1e 6c 8c 3c 04 76 61 3d 7c 09 1a bd 41 d2 82 bd
       0.017141398 0.05504419 -0.0376067 -0.06387759
000080 7e 70 62 3d ac d7 1d be 28 3a c4 bd 29 97 eb bd
       0.055283062 -0.15414304 -0.09581405 -0.11503441
000090 b0 da d0 bd b6 31 1e 3d 79 c4 11 3d 42 c7 8d bd
       -0.10197961 0.038621627 0.03558776 -0.06922771
0000a0 72 df a6 3d a7 da c8 bb d9 6b 3e 3d 44 92 e5 3c
       0.081480876 -0.006129581 0.04648957 0.028023846
0000b0 fb 9d d7 bc 93 3e 0a 3d ea 4c 65 3d a9 30 60 bd
       -0.026320448 0.03375108 0.055981554 -0.054733906
0000c0 b2 84 8e bc 3e 13 04 3d 14 d5 9f 3a 65 71 3b 3d
       -0.017397258 0.032244913 0.001219424 0.04576244
0000d0 69 68 86 bd 3b 3e c7 3d 87 d9 43 3d 03 83 f9 bd
       -0.065628834 0.097286664 0.047814872 -0.121831916
0000e0 49 70 48 3b 7e 76 06 be 8c cf 9a bd 6a 0d 95 3d
       0.0030584505 -0.13131139 -0.07559118 0.07277949
0000f0 b8 7d 85 3b 73 d9 a1 3d e5 8f 94 bd 86 5d 1b 3d
       0.0040738247 0.07902803 -0.07254008 0.037930988
000100 62 e6 67 3c 52 6d 45 bd 34 7d e9 bd cd 1b 21 be
       0.014154049 -0.04819996 -0.11400834 -0.15733261
000110 ec dd 6d bc 58 38 dd bd 0b 6c e2 bc 28 6b e4 3b
       -0.014518242 -0.10801762 -0.02763941 0.006970782
000120 fd 3a ab 3d 5c aa 05 be ce 6f 5b 3d 1d 98 a1 bd
       0.083608605 -0.13053268 0.053573422 -0.078903414
000130 66 d1 f7 bd d8 ff c6 bd d0 0a 6b bd 82 89 21 bd
       -0.121004865 -0.09716767 -0.05738336 -0.03943778
000140 65 6b 10 3c a7 a4 60 3d 51 20 a7 3d 4a de 55 3d
       0.008814667 0.054844525 0.08160461 0.052213944
000150 5d 67 04 bd 70 d2 b6 3d 0d 5c a5 bc ee 8f cc 3d
       -0.032325137 0.089268565 -0.020185495 0.0998839
000160 62 e6 9b 3d 1c 06 34 3d 67 a5 f9 3d d1 43 73 3d
       0.076123014 0.04395114 0.12189751 0.059390847
000170 2f 18 4b bd c6 d7 0a 3d 1f af 93 bd 26 2a d7 3d
       -0.04958361 0.033897184 -0.07211136 0.10506086
000180 2b 04 ac 3d 59 53 49 bd 55 72 0f 3b 03 70 a2 bd
       0.083992325 -0.049151752 0.0021888216 -0.07931521
000190 2e 84 21 bd 2c d8 c1 3d ce 97 f9 bd 4d cc c0 3d
       -0.039432697 0.0946506 -0.121871576 0.09413967
0001a0 32 2d c3 bb 6e e5 7e 3d fe 36 27 3d aa 19 f3 3c
       -0.0059563154 0.06223052 0.04082393 0.029675324
0001b0 12 aa eb 3c 80 21 f3 bd ee 68 93 bd 84 73 ba bc
       0.02876762 -0.11871624 -0.07197748 -0.02276016
0001c0 33 47 89 3d c7 00 1e bd 60 08 86 3b 4b 37 6b bc
       0.06703033 -0.03857496 0.004090354 -0.014356445
0001d0 5a 49 01 be e2 b1 68 bd 6b 9d 25 be 86 d6 94 3c
       -0.12625638 -0.056810267 -0.16173331 0.018168699
0001e0 11 98 ed 3b 7b 73 b3 3d 0e 6d 17 3e 4b ac e5 bd
       0.0072507937 0.087622605 0.14787695 -0.11214503
0001f0 75 6a 03 3d eb 66 53 3d 65 e6 8d 3d 10 5f f4 bd
       0.032083947 0.051611822 0.0692871 -0.11932194
000200 c0 f0 bd bd 72 a2 54 bd 41 da 3d 3d 22 ca 34 3d
       -0.09274435 -0.051912732 0.04635072 0.04413808
000210 9c 29 e5 bd e8 74 70 3d 31 1b 1d bd 21 48 83 bd
       -0.11189577 0.05870524 -0.03835601 -0.06410242
000220 0a 56 80 3d fb 0b 83 bc ed f5 89 3d c7 c8 87 3d
       0.06266411 -0.015996924 0.0673636 0.06630092
000230 3e 68 88 ba 0e f9 e1 3c 73 a7 67 3d 22 47 f6 bd
       -0.0010407043 0.027584579 0.056556176 -0.12025286
000240 4d 34 6b bd 2e a8 b1 3c 1d 2e d5 3d 94 a5 66 bd
       -0.057422925 0.02168664 0.10409186 -0.05631025
000250 07 ba b3 3d a9 35 c5 3d a6 2d 80 3d 50 61 92 bd
       0.08775716 0.096293755 0.06258707 -0.07147467
000260 df 7c 57 3d f9 a4 8e bd 33 20 6c bd 72 65 c9 ba
       0.05260932 -0.0696506 -0.057647895 -0.0015365316
000270 34 74 eb bc 8a 48 c2 bc 81 bf e2 bc 7b 62 aa 3d
       -0.028741933 -0.02371623 -0.027679207 0.08319565
000280 7a c0 35 3b a7 a8 16 bd 00 4e f5 bb 61 07 1d bd
       0.0027733133 -0.036781933 -0.007486105 -0.038337115
000290 dc 96 b0 3d 5a d6 8d bd b0 c4 e9 3c df e7 9e 3d
       0.08622524 -0.0692565 0.02853617 0.0775907
0002a0 49 b3 66 bc 31 3e 9b bc 5f d6 4e 3d a9 9d ba bd
       -0.014080831 -0.018950554 0.05049741 -0.091121025
0002b0 14 b8 c6 3d 91 35 4d bd 1c 78 6f bd 13 7f d8 3c
       0.09703079 -0.050099913 -0.058464155 0.026427781
0002c0 2a 36 c9 bd 30 32 1f 3c ef c8 a6 bd 63 6f ec 3c
       -0.09824784 0.0097165555 -0.08143794 0.028861707
0002d0 5e 42 29 bc 32 20 2e 3d 82 dd af 3d 18 2e a8 3d
       -0.010330765 0.042511173 0.08587171 0.08211917
0002e0 2b 4c ac bc d9 a3 97 3d fe f5 80 bd 76 b2 73 bc
       -0.021032413 0.07404298 -0.06296919 -0.014874091
0002f0 cc 34 ce 3d 92 52 4a bd ee a3 ea bc 00 5e e9 3c
       0.10068664 -0.04939515 -0.02864262 0.028487206
000300 9b e5 ed bd a8 92 4a bd b2 ec d1 bd 95 eb 45 3d
       -0.116160594 -0.04945627 -0.10250224 0.04832037
000310 16 86 de bd 81 53 97 3d 7d a2 b6 bc 6e af 63 3d
       -0.108654186 0.07388974 -0.022294277 0.055587225
000320 30 ce 84 bc ce 1f 25 bd 6a 79 a0 bd 76 b7 31 bd
       -0.0162116 -0.040313534 -0.07835658 -0.043387853
000330 3c 45 d8 bd 5e 8f 8e 3d e6 8b ed bb 72 dc e3 bd
       -0.105600804 0.06960939 -0.007249343 -0.11126031
000340 7c 01 c6 bc d1 b8 09 bd 08 24 63 bd b4 8d 3f bd
       -0.02417063 -0.03362352 -0.055454284 -0.046765998
000350 a7 38 c8 3d 34 9d a5 bd 87 97 76 bc e4 b3 1d 3d
       0.097764306 -0.08086625 -0.015050775 0.038501635
000360 74 83 51 3d a2 34 06 3e 8c d9 6a bc 14 32 bd 3d
       0.051150754 0.13106015 -0.014334094 0.09238067
000370 84 ed ab ba 6a f6 bb bd b2 f7 fa bd da 5b 1d 3d
       -0.001311705 -0.09177859 -0.122542754 0.038417675
000380 4a 31 9a bc 18 e9 a6 3c 20 62 0b bc db ec 3e bd
       -0.018822331 0.02037482 -0.008507282 -0.0466126
000390 77 08 d6 3d 30 e6 97 bc 7e df 16 bd 82 a9 07 be
       0.10450833 -0.01854238 -0.036834233 -0.13248256
0003a0 b4 3d ca bd 97 58 76 3c 1d db 7e bd fe 71 82 bb
       -0.0987505 0.01503577 -0.06222068 -0.003980874
0003b0 d4 d6 90 3d b4 3a 9a bc 7b 20 0b bc d4 9d f5 3c
       0.07072225 -0.01882682 -0.008491631 0.029982485
0003c0 29 0e 88 bd f7 77 e6 3d 9e 43 8d bd dd d8 c7 bd
       -0.06643326 0.1125335 -0.068976626 -0.0975816
0003d0 ff 1c bc 3d 73 7c d4 3d 92 c4 db 3d 49 38 94 bc
       0.09185218 0.10375299 0.10730852 -0.018093245
0003e0 0c bd ee bd f1 e9 b7 3d 2e 98 02 3e b0 78 9a 3c
       -0.116571516 0.08980168 0.12753364 0.018856376
0003f0 b3 ef a1 3d b8 54 8b bd c0 4e 37 bc 02 ea 68 3d
       0.07907047 -0.06803268 -0.011188209 0.056863792

fc2.weight f4 [128, 256]
000000 fd 69 69 3d 0a 07 54 3d 1b c5 13 bb b4 f1 30 bb
       0.056985844 0.051764525 -0.0022547904 -0.0026999535
000010 fe fd 8f bc fe e1 2a 3c 82 cf 53 3d c0 3c 7a 3c
       -0.017577168 0.010429857 0.051711567 0.015273273
000020 22 43 6d 3d b3 ff 02 bd c0 fb 1b bc 31 ab e8 3b
       0.05792535 -0.031982135 -0.009520471 0.0071004857
000030 ef a5 a5 3c 6e 49 ca bc fc 47 59 3d b5 5a 4f bd
       0.020220725 -0.024693217 0.053047165 -0.050623614
000040 52 04 0b bd 16 84 60 3b c4 40 c9 3c 7c a6 89 bd
       -0.033939667 0.0034258417 0.024567015 -0.067212075
000050 83 81 1b 3d a0 0d 11 bc 66 b1 b2 bc 83 8e 6c 3d
       0.03796531 -0.008853346 -0.021813106 0.057753097
000060 bc c2 90 3d a9 3e 77 3d 5c 95 58 3d 50 17 b5 bd
       0.07068393 0.06036249 0.052876815 -0.08842337
000070 a6 14 d5 3c a0 c2 40 bc af 88 e9 3b ad 5c 64 bd
       0.026010823 -0.011765152 0.0071268897 -0.055752445
000080 32 24 15 3c d2 75 73 3d d2 03 4e bd 92 ce 53 bd
       0.009102868 0.059438534 -0.050296612 -0.051710673
000090 dd c3 1a 3b 60 0f 41 bd 81 2c ba bb 7d ef a6 bc
       0.0023615279 -0.047133803 -0.005681575 -0.020377869
0000a0 3d f2 53 3c 3c 06 5e 3d 6a 71 82 bc ef 05 82 3d
       0.012936172 0.054205164 -0.01592322 0.06348788
0000b0 0f 28 42 3d 38 d8 63 bd bd 2f f5 bb 7a fd 51 3a
       0.047401484 -0.055626124 -0.0074824975 0.0008010488
0000c0 0e df 09 3d 05 69 7c bc 01 15 bc bb eb 34 1f 3d
       0.033659987 -0.015405898 -0.0057398085 0.038868826
0000d0 30 57 5c 3d 40 07 61 bc c3 32 34 3b 65 a9 e0 3c
       0.053794086 -0.013734639 0.0027496077 0.027424524
0000e0 50 22 95 bc d8 14 1c bc 7f e3 0e bd cf 09 7f 3d
       -0.018204838 -0.009526454 -0.034884926 0.062265214
0000f0 71 8f 97 bb e7 e8 17 3c 4b de 88 bc 8b 17 19 bd
       -0.004625254 0.009271837 -0.01670756 -0.037375968
000100 9d c5 64 3b b3 68 fe bc d4 74 f3 3c 33 35 63 bd
       0.0034907826 -0.031055784 0.029718794 -0.055470657
000110 3f 9d 09 3d 0d b6 0b 3d 3a b9 70 3c 61 9f ac bc
       0.033597227 0.034109164 0.014692599 -0.021072092
000120 24 02 8b bc e1 aa 4c bd 34 bf 81 3a ee ff 86 3d
       -0.016968794 -0.04996765 0.0009898902 0.065917835
000130 77 9a be bc 59 cf a1 bd e1 f1 57 bd 44 26 56 3d
       -0.023267014 -0.079008766 -0.052720908 0.052282587
000140 50 36 06 bd a0 38 24 3d 9a 98 45 3d ea d1 d0 3c
       -0.03276664 0.040093064 0.048241235 0.02549072
000150 2b 1d 2a 3c 8e 44 86 3c 38 f5 7e bc 53 bf 02 3d
       0.010382931 0.016390111 -0.015561394 0.031920742
000160 83 2c 5e 3c 06 ad 26 bd af eb 80 3d d2 d9 25 3d
       0.013560417 -0.04069235 0.06294953 0.040490933
000170 aa e7 9a 3c eb f6 2a 3c 2c 1b 58 3c 70 6d f2 bc
       0.018909294 0.010434846 0.013190072 -0.0295932
000180 75 0e 5d 3d b6 a1 67 3d 1e 77 31 3c bc a7 c6 bb
       0.053968865 0.056550704 0.010831622 -0.006062476
000190 f1 27 46 3d 10 a4 5a bd 7d f1 72 3d 74 d4 0d bd
       0.048377935 -0.05337912 0.059312332 -0.03462644
0001a0 09 07 72 3c f0 14 15 bd 42 81 85 bd 7c 67 21 3a
       0.014772185 -0.03639692 -0.065187946 0.0006157083
0001b0 bf 5a 7f 3d 2d 21 d8 3c f1 ad 1e bd d0 eb d2 bc
       0.0623424 0.026383007 -0.038740102 -0.02574721
0001c0 7b 90 c6 bc af e6 59 3d f5 32 1c 3d aa f1 54 3d
       -0.024238816 0.053198513 0.038134534 0.05198828
0001d0 d4 9d 64 bd c2 8c 45 3d 41 8c 3d bd 6c 78 84 3d
       -0.05581458 0.04822994 -0.046276335 0.06468281
0001e0 0d 5e 85 3d 18 c7 08 bd 22 5f 54 3d 01 c5 1e bd
       0.065120794 -0.033392996 0.05184854 -0.038762096
0001f0 86 4f aa 3b 78 74 0d 3d 12 d2 38 bd ba f8 8b 3c
       0.005197468 0.0345349 -0.045122214 0.017086376
000200 84 87 26 3d 40 95 34 3c cb 36 e3 bb 36 7c 34 bc
       0.04065658 0.011021912 -0.006934022 -0.011015942
000210 4c a0 2d bb 9b 62 65 bc 5e 91 73 3c c4 59 14 bd
       -0.002649325 -0.01400056 0.014866201 -0.03621842
000220 b2 46 a8 bc b8 a6 9a bc 17 51 02 3c 11 34 e8 bb
       -0.020541523 -0.018878326 0.007953904 -0.007086285
000230 42 f7 f8 ba 92 40 8b bc bf 9a dc ba 39 c7 90 bd
       -0.0018994587 -0.016998563 -0.0016830786 -0.07069249
000240 26 1a 6b 3b 20 f7 03 3d 5f ae 17 3d ee 1e 0b 3d
       0.003587374 0.0322181 0.037031528 0.033965044
000250 1c 2a 85 bd 5a 5c ce bc c1 8e b8 3c 48 cd f6 bc
       -0.06502172 -0.025190521 0.022529008 -0.030127183
000260 a5 f6 9f 3c 16 7d 46 ba 54 44 2d bd 79 54 f5 3c
       0.019526789 -0.000757174 -0.04230149 0.029947506
000270 8c 63 a5 3c 2b 04 1f bd ef f3 0c 3d eb ee ec 3c
       0.02018907 -0.038822334 0.03441232 0.028922519
000280 b7 0c 37 bd 48 1e 68 3c 9e 63 b4 bb f2 d5 36 3c
       -0.04468986 0.014167376 -0.0055050394 0.011159407
000290 84 a0 76 bc d9 cc 88 3b 94 c3 86 3d 19 db 5b 3d
       -0.015052918 0.0041748104 0.06580272 0.053675745
0002a0 7b a3 9e 3c bb 88 9b 3c 4b 33 c1 3c 6d 53 91 bd
       0.019365063 0.018986097 0.023584029 -0.0709599
0002b0 0a a1 5b 3b 89 af 77 3d 8f 15 0e 3d 10 16 1d 3b
       0.0033512735 0.060470138 0.03468853 0.002396945
0002c0 fe 38 7e bc 92 ef 3d bd 42 56 09 bd 52 0d 5f bc
       -0.015516518 -0.04637105 -0.033529527 -0.013614016
0002d0 bd 32 25 3d a9 7e 02 bd 43 23 d8 3b e7 aa 20 bd
       0.04033159 -0.031859074 0.0065960004 -0.039225485
0002e0 03 55 6c bc a8 85 10 bd 18 43 3b bc d2 5f b7 3c
       -0.014424565 -0.035283715 -0.011429571 0.022384558
0002f0 ee 6a 15 bc dc c9 46 3c fe cf ef 3c a0 f8 0c bd
       -0.009119732 0.012133088 0.029273983 -0.034416795
000300 1b 6a 88 bd 32 2d 9b bd ff 0a 4f bd 89 e4 0f 3d
       -0.06660863 -0.0757698 -0.050547596 0.035130057
000310 2e 36 15 bb 09 f5 c7 3b 5f 1a 38 3d 4c 12 81 3d
       -0.002276789 0.0061022085 0.044947024 0.06302318
000320 30 c2 11 3d 56 0f 79 3d ea 12 d1 3c 83 fd 26 3d
       0.035585582 0.06080564 0.025521714 0.04076911
000330 be 5d 80 3d 12 d5 57 bd 83 ba 82 bc ca 14 aa bc
       0.0626788 -0.052693434 -0.015958076 -0.020761866
000340 e0 33 3a 3d 3d a4 6d 3b 5e e6 d9 3a 60 06 e8 3c
       0.045459628 0.0036261224 0.0016624441 0.028323352
000350 78 1d 5d bd 4a b8 4d bc 51 70 89 3c c1 08 80 3d
       -0.05398318 -0.012556145 0.01677719 0.0625167
000360 0d f8 07 3d cf 23 1e bc 99 a4 14 3d 07 46 b7 ba
       0.033195544 -0.009652092 0.036289785 -0.0013982662
000370 68 55 47 bd e3 c7 24 3d 1e db 29 3c bf 3a 0e 3c
       -0.048665434 0.04022969 0.010367183 0.008680998
000380 e7 5a 40 bd 8a 8a 6b 3d 29 c6 2d 3c c0 dd 3a bd
       -0.04696169 0.057505168 0.010606327 -0.045621634
000390 cf ee f9 bb b5 a6 82 bd 55 6b 53 bd 50 98 2e bd
       -0.007627345 -0.06379453 -0.05161603 -0.042625725
0003a0 dd e5 46 bb 17 76 27 3c 9b e9 6f 3c 4c 79 9f 3d
       -0.0030349412 0.010221026 0.014643098 0.077868074
0003b0 bf 76 a1 bd 87 0e 70 bd cc ea 28 bd 00 d9 2d bd
       -0.07883977 -0.058607604 -0.041239545 -0.042443275
0003c0 5e 69 1e bd b7 cd 8b 3c 5f b3 57 3d 40 16 92 bd
       -0.038674705 0.017065866 0.052661296 -0.0713315
0003d0 22 be 08 3c 74 86 28 bd 2b f5 dc 3c ce dd 66 3c
       0.008346112 -0.04114385 0.026972374 0.014090968
0003e0 7c 66 cb bc 27 09 76 3c dc ef 8a 3d c2 42 3b 3d
       -0.024829142 0.0150168305 0.06784031 0.045717962
0003f0 3e a7 e3 3c 72 05 ba bc f5 33 d8 3c 53 87 83 bd
       0.027789708 -0.022707675 0.026391963 -0.064222954

fc2.bias f4 [128]
000000 cb cb d3 bb 64 81 58 bd 94 93 a5 3b b9 43 01 bd
       -0.006463503 -0.05285777 0.005052993 -0.031558726
000010 f6 89 8f 3c b8 31 bd 3c b4 f8 a3 3b 98 f6 0f 3d
       0.01752184 0.023094997 0.005004013 0.03514728
000020 f8 e4 94 bd 03 ed 82 3d 58 9a 3d bd f5 8d 61 bd
       -0.07270235 0.06392863 -0.04628977 -0.05506702
000030 e1 08 74 bd 79 a3 c5 bb ed 3e 17 bd 3a dc 91 bd
       -0.05957878 -0.0060314503 -0.036925245 -0.07122083
000040 2b 0a 8e 3d df c8 1c bd ed dc 5c bc c8 6b 27 bd
       0.06935533 -0.038277503 -0.013480407 -0.040874273
000050 60 e3 21 bd eb f9 0c 3b 5d e0 d2 3c 11 0b 5f 3c
       -0.039523482 0.0021511267 0.02574175 0.013613478
000060 10 e7 9b bd fe e1 0c 3d e6 66 2d 3d 1f 1c 87 3c
       -0.07612431 0.03439521 0.04233446 0.016492901
000070 3b 15 88 bc 51 65 4a bd 40 3c dc 3c fd 82 1b bd
       -0.016611686 -0.04941303 0.026884198 -0.037966717
000080 67 38 4c bd 2c 81 3f bd fc 69 53 3d ba e1 35 3d
       -0.049858477 -0.046754047 0.051614746 0.044404723
000090 82 46 0a bc ca e2 97 3d d2 d1 e9 3a 37 da 3d 3c
       -0.008439662 0.074163035 0.0017839021 0.011587671
0000a0 16 2b 7e bc 92 35 2b bd 4f e1 19 3d 38 17 55 3d
       -0.015513202 -0.041799136 0.037568387 0.052024096
0000b0 5a ff 1c bd e4 36 42 3d 94 ed a1 bd d1 53 85 3c
       -0.03832946 0.04741563 -0.079066426 0.016275318
0000c0 1d 72 12 bd 3b 02 0c bb c3 c0 24 3d b3 38 46 3d
       -0.03575336 -0.0021363634 0.040222894 0.048393916
0000d0 cc 6a 14 bd 8d fe ca bd 69 1d 88 bd 1b 0e 1c 3c
       -0.036234662 -0.09911833 -0.066462345 0.009524847
0000e0 1f 84 61 bd b5 01 d5 3c 5f 21 a4 bc 98 bc f0 bc
       -0.05505764 0.02600179 -0.020035444 -0.029386804
0000f0 9f f6 fe bc 9b 4d fa 3c 8f 77 1b 3d 41 7f 99 3c
       -0.031123457 0.030554583 0.037955817 0.018737437
000100 ba 59 97 bd 68 cd 59 bd 29 c1 50 3d 07 ed e5 bb
       -0.07390161 -0.053174406 0.050965462 -0.0070167813
000110 2e d0 29 bd 47 ae 06 b9 82 12 86 bc 55 fa 74 bc
       -0.0414583 -0.00012844159 -0.016366247 -0.014952262
000120 95 d5 62 bd 8e 2a 21 bd 22 51 d5 3c a4 a9 9b 3c
       -0.05537947 -0.039347224 0.026039664 0.01900179
000130 a3 df fb 3c 7b 45 f6 bc 6c 0a 61 bd 95 48 33 bc
       0.030746287 -0.030062428 -0.05494158 -0.010942598
000140 29 9f bc bc 98 8a f3 bc 71 0e 82 bd c2 33 e9 bc
       -0.023025112 -0.029729173 -0.06350411 -0.028467063
000150 ea 32 c3 bc bb e3 8b bd 37 81 92 bb 09 4a f0 bc
       -0.023827989 -0.068305455 -0.00447097 -0.029332178
000160 b6 5a d3 bc 11 94 32 bc 86 72 f9 ba 4b a4 bb bc
       -0.02580009 -0.01089956 -0.0019031323 -0.02290549
000170 9c e1 11 ba 72 22 44 bb 0e 38 53 bc c6 61 bf bd
       -0.00055649295 -0.0029927758 -0.012891782 -0.09344821
000180 0c 78 66 bd cc 21 15 bd 66 2d 64 bd 39 03 b8 bc
       -0.05626683 -0.036409184 -0.055707358 -0.022462474
000190 a0 d2 14 bd 15 b6 eb bd 4e 8e 5a bc ae f2 42 3d
       -0.03633368 -0.11509339 -0.013339592 0.04759472
0001a0 a1 1a 1e bd bb e6 7b 3c ff fe 3b bd c6 13 b5 bc
       -0.038599614 0.015374835 -0.04589748 -0.022104155
0001b0 62 5c 28 3c 83 27 fa bc 89 dd 19 bc 84 e3 28 3d
       0.010275932 -0.030536419 -0.009391197 0.0412326
0001c0 64 d0 2c 3d 43 84 68 3c 88 71 02 bd 4d b6 af 3c
       0.042190924 0.01419169 -0.031846553 0.021449232
0001d0 07 f2 77 3d da 60 c4 bc 49 da 54 bd 14 85 0e 3d
       0.06053355 -0.023971964 -0.051965985 0.034794882
0001e0 03 97 df bb ea 32 60 bd 9a 54 5b bd fd 16 b5 3c
       -0.006823422 -0.054736055 -0.05354748 0.022105688
0001f0 0f 91 a8 bd 53 26 70 3c 8f c3 6f 3d f0 f6 80 3b
       -0.08230793 0.014657575 0.05853611 0.0039356872

fc3.weight f4 [2, 128]
000000 5a ff 54 3c 49 8c 6d 3d 77 f0 4a 3d 50 17 27 bd
       0.013000334 0.057995114 0.04954573 -0.040793717
000010 8e 9b 4b bd 11 0d 53 3d bd f4 cf 3d bd 22 f7 bc
       -0.049708895 0.051526133 0.10154102 -0.030167932
000020 cb ea df bd ea f7 04 3d 90 9b 0c bd c9 97 91 bb
       -0.10933455 0.03246299 -0.034328043 -0.004443143
000030 56 1b 2c 3d e6 9b 97 3d e9 e6 ca bd 1c cd 9c 3c
       0.042018257 0.07402782 -0.09907324 0.019140773
000040 23 98 0d bd a6 92 5c 3d 47 48 55 bc 1b 54 9b 3d
       -0.034568917 0.053850792 -0.013017721 0.07584401
000050 8d 07 02 bb 34 f3 97 3c cb e2 bf bd 14 7d ca 3d
       -0.0019840926 0.018548585 -0.09369429 0.09887138
000060 67 2b d6 bd 78 91 5d 3d 93 ca d6 3d 1e 40 53 3d
       -0.10457497 0.054093808 0.10487857 0.05157482
000070 2f 63 f1 bc 39 96 a2 3d 9c d2 9f bd 40 22 89 3d
       -0.02946624 0.07938809 -0.078038424 0.06695986
000080 25 54 35 3d 59 86 80 bd e1 8f 51 3d f6 f3 c3 3d
       0.0442697 -0.06275625 0.051162604 0.09568016
000090 8d 23 1d 3d 75 78 9b bd 99 17 01 3d f2 7b 49 bd
       0.038363982 -0.07591335 0.031516645 -0.04919047
0000a0 53 fb 8f bc f0 18 8e 3d d7 a2 bb 3d fa 69 f4 bc
       -0.017575895 0.0693835 0.091619186 -0.02983569
0000b0 2a a3 a0 3d 48 f3 39 3d cc 07 e9 3d d9 76 4f 3c
       0.07843621 0.045398027 0.1137844 0.012662613
0000c0 67 6b 86 bd d8 50 8d 39 66 ad 00 3c 5c 22 67 3d
       -0.06563454 0.0002695385 0.007853841 0.056429252
0000d0 04 65 c6 3d 55 5f bd 3d 33 f8 66 bc a1 22 3e 3d
       0.09687236 0.09246699 -0.014097261 0.046419743
0000e0 97 ea 90 bd d9 5a 26 bc 9a ec 79 3d 23 f5 9c 3d
       -0.070759945 -0.010153496 0.061016656 0.076639436
0000f0 0f 04 3d 3c 7d a7 8e bd e8 0b 10 3d 09 48 bb 3d
       0.011536612 -0.069655396 0.035167605 0.09144599
000100 ce d9 81 3d 8b 83 56 3c 8a a7 4a 3a dc d3 73 3d
       0.06340371 0.013092886 0.0007730654 0.059528217
000110 ea 2c d6 3d 54 13 9a 3d 15 3a fe 3c 80 4c ed bc
       0.104577854 0.07523218 0.031033555 -0.028967142
000120 04 81 58 3d e9 0c b3 3d 7f 1b 32 bb bb c6 c5 bd
       0.052857414 0.08742697 -0.0027177033 -0.096570455
000130 19 a4 76 3c 9b 91 94 3b f3 f2 fe bc f3 52 be 3d
       0.015053772 0.004533959 -0.031121707 0.09293165
000140 33 f3 11 3d ca 96 10 bd ca 5c 24 bd c6 ba 98 3d
       0.035632323 -0.035300054 -0.040127553 0.07457499
000150 66 32 74 bd 06 91 3f bc 41 fb 50 bb 8f 4b 1d bc
       -0.059618376 -0.011692291 -0.003188804 -0.009600534
000160 f2 bc 7c bc 3a e8 14 bc 52 28 be bc c5 97 bd bd
       -0.015425907 -0.00908857 -0.023212586 -0.09257463
000170 b9 27 8f 3d e0 a9 84 bd 74 5a 25 bd b7 fb 53 3d
       0.06989998 -0.064777136 -0.040369466 0.051753726
000180 35 9f b6 3d 7e dd 8a bd a8 0c 59 3d 48 49 9e 3d
       0.08917085 -0.067805275 0.052990586 0.07728821
000190 95 26 8b bd 25 67 2d 3d 09 e6 81 bd a9 39 6a 3d
       -0.06794468 0.042334694 -0.06342704 0.057183895
0001a0 c9 00 cc 3d 20 23 6c bd 2e 82 58 bd 40 92 c6 3d
       0.09961087 -0.057650685 -0.052858524 0.09695864
0001b0 3e de 42 3d 6d 00 d5 bd 60 e8 25 bd 8a 52 52 3d
       0.047575228 -0.10400472 -0.040504813 0.051348247
0001c0 96 a9 c6 3b c1 3e 78 3d 9d 82 d7 bc a7 db 83 3c
       0.0060626967 0.06060672 -0.026307398 0.01609595
0001d0 75 be d8 3d fe 80 83 bd 48 17 7a bb d1 b5 ad bd
       0.10583202 -0.06421088 -0.003816085 -0.08481944
0001e0 f6 ee 09 bd 95 cb aa 3d 27 6c b7 bd 6b 11 bf bc
       -0.033675157 0.083396114 -0.08956175 -0.023323735
0001f0 bb 76 05 bb ff 58 3f bd ad e7 a7 3d 1d 94 82 bd
       -0.0020364958 -0.046715733 0.081984855 -0.063759066
000200 bd 1f f0 bc 44 f5 25 3d 59 8e a5 bd 8f 82 b1 bb
       -0.029312009 0.040517107 -0.08083791 -0.005417175
000210 42 01 c6 3d 84 8b f4 bc 44 9e cd 3c 71 32 79 bd
       0.09668209 -0.029851682 0.025099881 -0.06083912
000220 2f 35 a9 3b c6 07 87 3c 44 1d a4 bd a7 2d 01 3e
       0.0051638107 0.016483199 -0.080133945 0.12615071
000230 96 6c f7 3c f4 a0 96 3d e1 f3 3d bd cd 50 00 bc
       0.030203145 0.07354918 -0.04637516 -0.007831764
000240 ca cf 12 3d f3 0c 37 bb b2 ef 1e 3d 1d 79 bc 3b
       0.035842694 -0.0027931302 0.03880281 0.0057517425
000250 14 25 54 bd fd 55 84 bd d9 d3 75 3d 62 8b d8 bc
       -0.051793173 -0.064617135 0.060016487 -0.02643365
000260 91 43 3f 3d bf 77 22 bd 5c b6 00 bd cd 15 3a bd
       0.046695296 -0.03966498 -0.03142391 -0.045430947
000270 9b e5 49 bd 70 46 b5 bb 1c e2 a0 3d 08 8c dd bd
       -0.049291234 -0.0055320784 0.07855627 -0.108177245
000280 f1 7e 88 bd 39 0c b2 3d 53 e0 2d bd 6b 42 b2 bd
       -0.06664837 0.086937375 -0.04245026 -0.087040745
000290 34 de 73 bd 5f 98 db 3d 67 2f ba bd 4e 09 c9 bd
       -0.05953808 0.10722422 -0.090910725 -0.09816228
0002a0 cf a2 b3 bd e3 71 0a bc 1c f3 09 3d 3e 4c 71 3d
       -0.08771288 -0.008450004 0.033679113 0.0589106
0002b0 0e 64 02 bd 2e d4 05 3c 85 5a f9 bc 40 a0 a8 3d
       -0.0318337 0.008168263 -0.03043867 0.0823369
0002c0 c1 7b c5 bc 4c 53 6d bd 6a 12 48 bd a4 50 13 bd
       -0.024106862 -0.057940766 -0.048845686 -0.035965577
0002d0 1e eb 16 bd 98 c0 b0 3c 50 3f b4 3c db e7 9e bc
       -0.03684532 0.02157621 0.022002846 -0.019397667
0002e0 36 c3 eb 3c fd 7f 96 3d 81 28 71 bd a1 dc 3a 3a
       0.028779607 0.073486306 -0.05887652 0.0007128213
0002f0 21 bb 95 bd 31 70 c0 3d bf 7c e9 bc 77 4c e9 3c
       -0.07311083 0.09396399 -0.028501866 0.028478844
000300 47 dc 10 3b de ec 01 bd 8d 1b aa bc 2a 9d 28 bd
       0.0022103952 -0.031720035 -0.02076509 -0.04116551
000310 30 0f 0e 3d b1 bc 63 bd d3 41 87 39 7e d5 c6 bd
       0.034682453 -0.055599872 0.0002579825 -0.09708689
000320 c0 8b 8a b8 55 46 0d bc 75 03 8e bd 26 0a 5a 3d
       -6.606383e-05 -0.0086227255 -0.06934253 0.053232335
000330 6f e6 ee bd 28 98 8b 3d 8b ec aa 3c 08 d0 57 bd
       -0.116650455 0.06816131 0.020864746 -0.05268863
000340 a1 79 ea 3d 79 78 96 3d 57 a4 23 bc 97 fd b0 bd
       0.1144898 0.07347197 -0.009987912 -0.086421184
000350 bc 7d 0f 3c 80 0c d6 bd 05 47 76 bd d6 10 19 bd
       0.008758005 -0.10451603 -0.060126323 -0.03736957
000360 46 b2 af 3d a3 6b 85 3d a1 88 c2 bd 53 7c 84 bc
       0.08578925 0.06514671 -0.09498716 -0.016172564
000370 0e ff 43 bd 5a 8c 8b 3d 37 80 b8 3d 6e a8 30 3c
       -0.04785066 0.06813879 0.0900883 0.010782344
000380 f3 84 60 bd 5e f6 e8 3d 59 57 eb bd d4 a2 6b 3b
       -0.05481429 0.11375116 -0.114912696 0.0035955207
000390 5b b3 22 3b 0f 4f ca 3d 0a c6 78 bc fe 40 20 bd
       0.0024826142 0.098783605 -0.015183935 -0.03912448
0003a0 07 e5 af 3c c9 ae 34 bd 77 bd ac bb 42 5d bb 3b
       0.021471513 -0.044112 -0.0052716094 0.0057179043
0003b0 7a ea c2 bd fd ca c3 3c 62 96 ed bd 8d 32 88 bc
       -0.09517379 0.023900503 -0.11600949 -0.016625667
0003c0 a6 4c 4f bd a2 f9 57 bc 73 41 16 3d 98 2e 98 bd
       -0.050610207 -0.013182076 0.03668351 -0.07430762
0003d0 56 6d e2 3b 5c 50 4b 3d 68 ec ca bd ad 7a 78 3c
       0.0069100065 0.049637184 -0.09908372 0.015165967
0003e0 88 8f a6 bd 95 aa 2f bb af c8 8a 3c 32 32 8c bd
       -0.08132845 -0.0026804556 0.016941397 -0.068455115
0003f0 1b 82 ad 3d 0c d8 e0 3d f9 d2 b6 bd 87 29 3a bd
       0.08472081 0.10978708 -0.089269586 -0.04544976

fc3.bias f4 [2]
000000 90 8f 31 3c 83 cf de bc
       0.010837451 -0.027198559

batch_norm1.weight f4 [256]
000000 8c 2c 7c 3f 5b 2f 80 3f 0c 63 80 3f 80 f0 82 3f
       0.98505473 1.0014452 1.0030227 1.0229645
000010 b0 2f 7f 3f 7a 61 84 3f d5 7a 78 3f 38 82 80 3f
       0.9968214 1.0342247 0.97062427 1.003974
000020 6d 62 82 3f e0 44 81 3f e0 93 85 3f 01 e6 79 3f
       1.0186287 1.0099144 1.0435753 0.97616583
000030 66 0e 81 3f bb 34 7c 3f a3 ab 7c 3f ff bf 79 3f
       1.0082519 0.9851796 0.98699397 0.9755859
000040 a5 6f 81 3f 60 d5 80 3f 1b 29 7d 3f 3c 41 81 3f
       1.0112196 1.0065117 0.98890847 1.0098033
000050 79 4e 80 3f 53 2a 7c 3f 2d 17 82 3f 4a 39 79 3f
       1.0023948 0.9850208 1.0163323 0.9735304
000060 d1 26 82 3f 6c 3c 7f 3f ab 0c 81 3f b0 1f 84 3f
       1.0168096 0.9970157 1.0081991 1.032217
000070 ac f4 7e 3f 5f 90 7b 3f 05 1d 7d 3f cc 6e 7d 3f
       0.9959209 0.9826717 0.98872405 0.9899719
000080 63 e0 74 3f 77 ff 85 3f 1a 6a 7c 3f 71 da 7d 3f
       0.95654887 1.0468587 0.985994 0.9916144
000090 77 be 7b 3f 81 8e 7c 3f fc 1e 79 3f 60 e0 7f 3f
       0.983375 0.98654944 0.97312903 0.99951744
0000a0 02 04 75 3f 54 de 82 3f 5f e4 81 3f eb 40 80 3f
       0.9570924 1.0224099 1.0147818 1.0019811
0000b0 e5 a4 7e 3f d5 2b 82 3f 0b 47 81 3f 27 89 81 3f
       0.9947036 1.0169626 1.0099806 1.011998
0000c0 ea dd 7a 3f a4 7e 78 3f 97 e0 7d 3f b9 ec 7d 3f
       0.97994864 0.9706824 0.9917082 0.99189335
0000d0 18 6d 80 3f b8 20 7b 3f 25 b0 7b 3f 4b 13 80 3f
       1.0033293 0.980968 0.9831565 1.0005888
0000e0 79 10 7a 3f 92 b5 82 3f 2b 5e 7d 3f c4 0c 7a 3f
       0.97681385 1.0211661 0.98971814 0.9767573
0000f0 ad 61 81 3f 44 c6 7d 3f aa 52 80 3f fa 3c 7d 3f
       1.0107933 0.99130654 1.0025227 0.9892117
000100 89 4c 82 3f f6 85 82 3f 1a fc 83 3f 15 ac 81 3f
       1.0179607 1.0197132 1.031131 1.013064
000110 b0 0a 81 3f f4 0f 80 3f c4 83 76 3f 7a 6f 81 3f
       1.0081387 1.0004869 0.9629481 1.0112145
000120 98 3c 81 3f 93 56 84 3f 22 b8 80 3f 2b c6 7f 3f
       1.0096617 1.033892 1.0056193 0.99911755
000130 23 8e 81 3f 3c d0 7e 3f e2 ea 7e 3f bd 42 7d 3f
       1.0121502 0.9953649 0.9957715 0.9892996
000140 62 43 83 3f ad 93 7b 3f 33 75 81 3f d4 64 7c 3f
       1.0254939 0.9827221 1.0113891 0.9859135
000150 72 74 7d 3f a0 00 7a 3f 5e 8e 81 3f be cf 7f 3f
       0.99005806 0.97657204 1.0121572 0.99926364
000160 a0 22 80 3f 8c 7b 78 3f e6 c6 7a 3f 09 74 7d 3f
       1.0010567 0.9706352 0.97959745 0.9900518
000170 f9 37 7c 3f fc 92 80 3f 3b dd 80 3f 10 be 7b 3f
       0.9852291 1.0044856 1.0067514 0.9833689
000180 f4 3c 79 3f a9 fb 7e 3f ad 0d 7c 3f a4 9e 80 3f
       0.9735863 0.9960275 0.9845837 1.0048413
000190 cc 4b 7e 3f 87 64 7a 3f 5b a1 84 3f 47 f8 80 3f
       0.99334407 0.9780964 1.0361742 1.0075768
0001a0 b6 6d 81 3f 53 bc 7b 3f e6 c5 7c 3f 8d 06 82 3f
       1.0111606 0.98334235 0.9873947 1.0158249
0001b0 0a 0c 79 3f 4d 40 83 3f 5c 9f 84 3f 41 db 7b 3f
       0.97283995 1.0253998 1.0361133 0.9838143
0001c0 5a 89 7e 3f 3d dd 7b 3f be fe 7b 3f 49 dc 7e 3f
       0.9942833 0.9838446 0.9843558 0.9955488
0001d0 79 7c 82 3f ef e3 82 3f 9d 15 81 3f cc 3c 81 3f
       1.0194236 1.022581 1.0084721 1.0096679
0001e0 71 2d 81 3f 75 35 7d 3f a7 06 7d 3f 80 fd 7d 3f
       1.0091993 0.98909694 0.98838276 0.99214935
0001f0 a2 b8 7e 3f cc a0 7f 3f a5 71 7c 3f 33 c1 81 3f
       0.9950048 0.9985473 0.9861091 1.0137085
000200 80 2c 81 3f cd 36 80 3f 7c 0d 7d 3f d1 dd 77 3f
       1.0091705 1.0016724 0.988487 0.9682284
000210 b5 cd 7c 3f 4b 9e 7c 3f cd 75 81 3f 53 d1 7a 3f
       0.98751384 0.98679036 1.0114075 0.97975653
000220 00 24 81 3f 21 6c 82 3f 7a 55 78 3f 73 ab 7c 3f
       1.0089111 1.0189248 0.97005427 0.9869911
000230 dc 4c 80 3f 1b 1d 7b 3f 03 6c 7d 3f 1d 5d 80 3f
       1.0023456 0.98091286 0.9899294 1.0028416
000240 d6 75 85 3f ec bc 7a 3f a6 b4 7d 3f fc e8 7d 3f
       1.0426586 0.9794452 0.9910377 0.9918363
000250 df 7c 7c 3f de 79 7e 3f 38 3e 77 3f 80 de 7d 3f
       0.9862804 0.99404705 0.96579313 0.99167633
000260 19 4a 7d 3f e6 26 80 3f 22 55 7d 3f d1 f0 7d 3f
       0.9894119 1.0011871 0.9895803 0.9919558
000270 db e0 78 3f f2 23 83 3f 64 af 81 3f e8 f1 7a 3f
       0.972181 1.0245345 1.013165 0.9802537
000280 ba 6c 83 3f 17 b9 7d 3f 12 7d 7d 3f d1 47 80 3f
       1.0267556 0.9911055 0.9901897 1.0021917
000290 19 68 7e 3f b1 80 7e 3f 93 28 82 3f f4 6f 76 3f
       0.9937759 0.9941512 1.0168632 0.96264577
0002a0 dc 99 7f 3f 14 26 7e 3f 76 d6 82 3f 20 91 7e 3f
       0.99844146 0.9927685 1.0221698 0.99440193
0002b0 11 4b 7b 3f 6f 5d 7a 3f c9 3c 81 3f a0 7d 7d 3f
       0.9816142 0.9779882 1.0096675 0.99019814
0002c0 7d b1 81 3f 8b 71 82 3f bd 84 81 3f a0 8f 7d 3f
       1.013229 1.01909 1.0118634 0.9904728
0002d0 47 37 85 3f 2c 0f 7a 3f 20 86 7f 3f 0d 28 83 3f
       1.0407494 0.976794 0.99814034 1.0246598
0002e0 97 07 7c 3f f4 d2 7f 3f 3d d6 83 3f d7 28 84 3f
       0.9844908 0.99931264 1.0299755 1.0324963
0002f0 d1 13 7a 3f d8 b1 7c 3f c5 1c 81 3f e6 fc 80 3f
       0.9768649 0.9870887 1.0086905 1.0077178
000300 0e 97 7d 3f 86 b6 80 3f 6e f1 82 3f 9e aa 80 3f
       0.99058616 1.0055702 1.0229928 1.0052068
000310 be 10 82 3f 82 63 7d 3f 06 65 7c 3f 0c ff 7a 3f
       1.0161359 0.9897996 0.9859165 0.9804542
000320 ff 42 81 3f 56 0e 80 3f 6a 94 7c 3f 56 4a 7f 3f
       1.009857 1.0004375 0.9866396 0.997228
000330 3a cd 81 3f 96 92 78 3f 8c b8 7f 3f 98 ad 7b 3f
       1.0140755 0.9709867 0.9989097 0.9831176
000340 b7 de 7b 3f 12 4b 7e 3f a9 3e 82 3f b4 aa 80 3f
       0.9838671 0.993333 1.0175372 1.0052094
000350 81 1d 7f 3f 17 5a 80 3f d2 e4 80 3f d9 bc 81 3f
       0.99654394 1.0027493 1.006983 1.0135757
000360 1a 88 7d 3f 5d ae 7d 3f 8c b8 80 3f 49 72 80 3f
       0.990358 0.9909418 1.0056319 1.0034877
000370 6f 4e 80 3f 77 62 79 3f 83 1c 7d 3f ff 0f 7e 3f
       1.0023936 0.9741587 0.9887163 0.9924316
000380 a6 e3 81 3f 16 cc 82 3f f1 a0 80 3f db 81 80 3f
       1.0147598 1.0218532 1.0049115 1.0039629
000390 c2 13 7c 3f f5 38 81 3f 77 36 81 3f 71 13 81 3f
       0.9846765 1.0095507 1.0094746 1.0084058
0003a0 a0 6c 82 3f 56 83 80 3f a8 e7 84 3f 59 38 7f 3f
       1.01894 1.004008 1.0383196 0.99695355
0003b0 90 da 7f 3f f8 85 80 3f 13 e7 7b 3f d2 1b 83 3f
       0.99942875 1.0040884 0.98399466 1.0242865
0003c0 38 ff 7a 3f 18 08 77 3f 88 e0 7e 3f 96 69 81 3f
       0.9804568 0.96496725 0.9956136 1.0110347
0003d0 20 0c 7b 3f 45 dd 79 3f 2d 64 80 3f 78 65 83 3f
       0.98065376 0.97603256 1.0030571 1.0265341
0003e0 b6 ac 7d 3f 20 82 7a 3f e4 52 7d 3f 23 4f 81 3f
       0.9909166 0.97854805 0.98954606 1.0102276
0003f0 d6 a9 80 3f 4b 02 84 3f 5f 32 7c 3f 9f 60 80 3f
       1.005183 1.03132 0.9851436 1.0029486

batch_norm1.bias f4 [256]
000000 73 ca cd bb 9d e4 b1 3c 9c 7c 07 3c 4e 47 5d 3c
       -0.0062802373 0.021715457 0.008269455 0.01350577
000010 0f ba 83 bc 89 96 fc 3b bb 35 9e bc 25 17 a6 3c
       -0.01607993 0.007708375 -0.01931273 0.020274708
000020 10 0d 76 bc f1 9c 10 bc 5a 57 c2 3c f1 af 2d 3c
       -0.015017763 -0.00882648 0.023723293 0.01060103
000030 86 31 c9 bc 7b 77 0b bd 52 fe 2c bb 4e 10 52 3c
       -0.024559747 -0.034049492 -0.0026396704 0.01282127
000040 8b 74 f5 3c da a5 56 bc 9d 2e cf 3b 4c e8 03 bb
       0.029962799 -0.0131010655 0.0063226954 -0.0020127473
000050 45 e5 54 bb 9c f7 1b bc 60 3c 2b bc 0b 17 23 bc
       -0.0032485288 -0.009519484 -0.010451406 -0.009954224
000060 d2 07 da 3c 7c f8 be bc b0 10 c7 ba 2c 78 13 bd
       0.026615057 -0.023311846 -0.0015187468 -0.036003277
000070 e3 fa 21 bb f8 f3 2b 3c 32 b0 f9 3b 56 3f c3 3c
       -0.002471619 0.010495178 0.007619881 0.023833912
000080 07 67 65 3c eb 7b 76 bc 55 65 89 3b f1 8a c7 3c
       0.014001614 -0.015044193 0.004192988 0.024358245
000090 5b 81 05 bc bc 65 3b 3b 5b 93 7a bc b7 c0 c7 bb
       -0.0081485165 0.0028594574 -0.015293921 -0.0060959714
0000a0 0d 0a 83 3c ca d8 24 3c 3d 8b 10 3c 93 ba 37 3d
       0.015996004 0.010061452 0.0088222595 0.044855665
0000b0 2f eb 71 bb cd e1 f6 bc 76 3c fa 3c 3c 34 a4 39
       -0.0036913862 -0.030136967 0.030546408 0.00031319435
0000c0 96 41 a6 3b 42 67 47 3c bc 42 ad bb 96 73 26 bc
       0.0050737364 0.012170615 -0.0052874964 -0.010159394
0000d0 a9 2c dd bb 08 b1 3a ba eb 71 2a 3b a9 91 5f bc
       -0.0067497087 -0.00071217166 0.0026007842 -0.013645568
0000e0 37 c5 20 3c e6 d6 a3 ba cb 8a b2 3c 1e 2e 9a 3c
       0.009812645 -0.0012499958 0.021794697 0.018820819
0000f0 7b c7 92 bc 90 45 c8 3b 0d d9 8e bc 1d ee 0d bd
       -0.017917385 0.006111808 -0.017437482 -0.03465091
000100 e3 89 1d 3c d3 8b 9a bc 74 3d 74 bc 90 99 30 3c
       0.009615394 -0.018865502 -0.01490723 0.0107788
000110 42 48 86 bc 54 6d a2 3c 38 e7 21 bc 31 c6 0d bc
       -0.016391877 0.019827522 -0.009881787 -0.00865321
000120 a6 e1 69 bc 4e 69 c7 3b 13 28 8f 3a 45 cd 8b 3c
       -0.01427499 0.0060855513 0.0010921977 0.017065654
000130 8e 81 97 bc 3d 2a 7a bc c2 30 53 bc d5 43 b1 3c
       -0.018494394 -0.015268859 -0.012890043 0.02163879
000140 54 05 5c bc ed c9 c7 bc 18 8c 9c bb b1 02 54 3a
       -0.013429005 -0.024388278 -0.0047774427 0.0008087559
000150 36 30 da 3a 94 a9 8b 3a 00 83 92 3b 0c f4 00 3d
       0.0016646448 0.0010655397 0.004471183 0.03148274
000160 d0 7a 56 bc 6b 0a 9f 3c c8 49 a3 3b 29 d7 d6 3b
       -0.013090804 0.019414147 0.0049831606 0.006556411
000170 cc 1d de b9 78 8b ad bc 1d 99 87 3c ee 80 b3 3c
       -0.0004236534 -0.021184668 0.016552502 0.021912064
000180 9a b6 9d 3b da 6b aa bc bb b8 fe bb 30 3d 84 bc
       0.0048130276 -0.02080338 -0.0077734864 -0.016142458
000190 f2 ec 4b 3a 04 31 1d 3c 1f d6 cd 3c 0b e6 97 3c
       0.0007779143 0.009594206 0.025126515 0.01854231
0001a0 87 f5 f1 3c ee e3 8f bc 6c fb 87 bc 7b 85 c0 bc
       0.029536022 -0.01756474 -0.01659938 -0.023501148
0001b0 65 00 4e bc 6f d4 5a bc 44 e8 4a bc ca 0e 3a 3c
       -0.012573336 -0.013356312 -0.012384478 0.011356065
0001c0 d9 5c 26 bc a9 10 5c bc d3 cd 1c 3a a2 1e 8f 3c
       -0.010153973 -0.0134317065 0.0005981598 0.017470662
0001d0 04 04 1c bd cb 2c 9f 3c cb 6f 04 3d f7 f8 63 bc
       -0.038089767 0.019430539 0.032333177 -0.013914338
0001e0 d4 a3 0d bc bf 3f 48 3c bf b9 55 3c 18 b5 af 3c
       -0.008645017 0.0122222295 0.013044774 0.021448657
0001f0 66 ef 3a 3c 5f dc 61 bc 42 b8 0e 3c be 90 fc 3a
       0.011409616 -0.013785451 0.008710923 0.0019269211
000200 38 d4 01 bc 4f 23 4e bc e5 d3 3e bc 55 a4 b8 bb
       -0.007924132 -0.01258166 -0.011647199 -0.0056348243
000210 3c 0a 58 3c 4c a3 73 bc c1 15 ad 3b 7d 00 03 3d
       0.013186034 -0.014870476 0.0052821343 0.031982888
000220 60 7b 38 ba 78 1c 29 bc af 84 47 3c 24 0b 88 3c
       -0.0007037427 -0.010321729 0.01217763 0.016606875
000230 e2 16 5f 3c 97 2f 71 3c f7 18 d0 3b 1b 23 72 3c
       0.0136162955 0.014720819 0.0063506323 0.014778878
000240 f8 ae 23 3c 41 4d 0c bd 97 4a 8a bc a2 8a 18 bc
       0.009990446 -0.034253363 -0.01688127 -0.009310396
000250 26 7c 57 3b a6 7b eb b9 d0 41 01 3d 73 88 c7 3b
       0.0032880395 -0.00044914818 0.031556904 0.006089264
000260 50 96 8b bc 1b f8 02 bc b3 59 b6 3c 20 52 73 3c
       -0.017039448 -0.007993723 0.022259569 0.014851123
000270 25 b2 4f 3c 8e 6f 3c bc a6 ce 6e 3c 35 54 eb 3a
       0.01267675 -0.011501206 0.014575636 0.0017954173
000280 e2 8d 12 3c c6 be 28 3c 06 24 8a 3c c5 a6 24 3d
       0.00894496 0.01029939 0.01686288 0.040198106
000290 d5 86 90 3b 4c 43 e0 bc 69 1e 6b 3c fd 16 2d 3c
       0.0044106045 -0.02737584 0.014350512 0.010564563
0002a0 07 e7 4a 3c 4c 48 da bc cc 7d 96 3c 34 22 c6 bc
       0.012384183 -0.026645802 0.018370531 -0.024186231
0002b0 b8 59 c8 3b 18 c2 82 3c 40 9d 90 3c 43 48 a3 3b
       0.006114211 0.015961692 0.017653108 0.0049829795
0002c0 dd 82 69 bc c6 3a c5 bc c8 7e 58 bc b8 b4 5a bc
       -0.014252392 -0.024075877 -0.013213821 -0.013348751
0002d0 59 60 3c 3c 2f cf 91 3c 05 42 18 bd 90 40 18 3d
       0.01149758 0.017798988 -0.037172336 0.037170947
0002e0 0c fc 9e 3c b5 d1 09 3b fc 0e 48 3c 47 e2 ba 3b
       0.019407295 0.0021029536 0.012210604 0.005703244
0002f0 e2 c1 b2 3b 79 09 4a 3c 20 37 e0 3b 6b 6d 0e 3c
       0.0054552415 0.01233136 0.006842509 0.008693079
000300 4a 54 65 3c 64 93 9b 3c 13 04 aa 3c 3c a7 55 3b
       0.013997147 0.01899118 0.020753896 0.00326009
000310 92 c5 94 bc 73 b7 d5 bb 53 ff 02 bc 77 30 2f 3c
       -0.018160615 -0.006522113 -0.007995444 0.010692707
000320 4c 56 88 bb a5 88 90 bc 77 9e dd 3c a5 d8 05 bc
       -0.004160678 -0.017643282 0.027053101 -0.008169328
000330 b4 ba 46 3c 0d 5f de bc 10 ea 7a 3b 5e 01 ca ba
       0.012129474 -0.027144933 0.0038286485 -0.0015411784
000340 ac 46 44 bc 82 8a f5 bb 50 c6 30 bb ee d4 aa bc
       -0.01197974 -0.007493318 -0.0026973672 -0.020853486
000350 73 5f 2e bd c6 9f fd bb 86 f8 9c bb 88 5c 85 3c
       -0.042571496 -0.0077399937 -0.0047903685 0.016279474
000360 97 ef 48 bc a2 6d f0 bb 86 ca ca 3b 33 3a 71 bc
       -0.012264154 -0.007337288 0.0061886935 -0.014723348
000370 5c 36 77 bc 63 a4 7a bb 0b 82 fc ba 3c 85 ae 3c
       -0.015088644 -0.0038244955 -0.001926483 0.021303765
000380 03 76 33 3d 93 eb 4a bb 41 57 91 3c 48 3f 35 bc
       0.043813717 -0.0030963167 0.017741801 -0.011062451
000390 dc af 87 3c 2d 85 bf bc d9 8f 18 bc a1 78 c5 3c
       0.016563348 -0.023378933 -0.00931164 0.024105372
0003a0 e6 a3 56 3c 84 01 89 3c 34 04 85 3c 61 a0 2e bc
       0.0131006 0.016724356 0.016237356 -0.0106583545
0003b0 f9 b9 9b 3b b1 f1 35 3d 15 f4 6e bb 29 c0 fb 3c
       0.0047523943 0.044419948 -0.0036461402 0.030731278
0003c0 a6 b4 ed 3b 72 be da 3b c0 1f bf ba b9 1b 3c bc
       0.007254201 0.006675535 -0.0014581606 -0.011481219
0003d0 b3 c4 92 3c 66 12 a8 ba a1 8f c0 bc f6 f9 2c bc
       0.01791606 -0.0012822866 -0.023505988 -0.010557642
0003e0 bc 72 22 3c a2 03 1a bb ba c0 1b 3a c0 70 d6 3c
       0.00991505 -0.00235007 0.0005941499 0.02617681
0003f0 96 f6 cf bb 2b b2 25 bc 06 86 84 3c f8 29 58 bc
       -0.006346534 -0.010113279 0.016177189 -0.0131936
